My SLURM_ARRAY_TASK_ID: 
EGNN_Network_time(
  (res_emb): Embedding(21, 32)
  (atom_emb): Embedding(37, 32)
  (token_emb): Embedding(21, 32)
  (pos_emb): Embedding(8070, 32)
  (layers): ModuleList(
    (0-5): 6 x ModuleList(
      (0): None
      (1): EGNN(
        (edge_mlp): Sequential(
          (0): Linear(in_features=73, out_features=146, bias=True)
          (1): Identity()
          (2): SiLU()
          (3): Linear(in_features=146, out_features=32, bias=True)
          (4): SiLU()
        )
        (node_norm): LayerNorm((32,), eps=1e-05, elementwise_affine=True)
        (coors_norm): Identity()
        (node_mlp): Sequential(
          (0): Linear(in_features=64, out_features=64, bias=True)
          (1): Identity()
          (2): SiLU()
          (3): Linear(in_features=64, out_features=32, bias=True)
        )
        (coors_mlp): Sequential(
          (0): Linear(in_features=32, out_features=128, bias=True)
          (1): Identity()
          (2): SiLU()
          (3): Linear(in_features=128, out_features=1, bias=True)
        )
      )
    )
  )
)
['../sidechainnet_data/PDB/test-full-scs-multi_FM#T0941.pdb', '../sidechainnet_data/PDB/test-full-scs-multi_TBM-hard#T0896.pdb', '../sidechainnet_data/PDB/test-full-scs-multi_TBM-hard#T0892.pdb', '../sidechainnet_data/PDB/test-full-scs-multi_TBM#T0947.pdb', '../sidechainnet_data/PDB/test-full-scs-multi_TBM#T0872.pdb', '../si
…
